{
  "storage" : "model.espresso.weights",
  "analyses" : {

  },
  "properties" : {

  },
  "format_version" : 200,
  "metadata_in_weights" : [

  ],
  "layers" : [
    {
      "axis_h" : 0,
      "axis_w" : 1,
      "bottom" : "cpm_stage1__conv3__BiasAdd__0",
      "axis_k" : 2,
      "axis_n" : 3,
      "axis_seq" : 4,
      "weights" : {

      },
      "debug_info" : "transpose_heatmap",
      "top" : "transpose_heatmap_output",
      "type" : "transpose",
      "name" : "transpose_heatmap"
    },
    {
      "axis_mode" : 3,
      "bottom" : "transpose_heatmap_output",
      "weights" : {

      },
      "mode" : 9,
      "debug_info" : "heatmap_max",
      "use_version" : 1,
      "top" : "heatmap_max_output",
      "type" : "reduce",
      "name" : "heatmap_max"
    },
    {
      "bottom" : "heatmap_max_output",
      "alpha" : -1,
      "operation" : 1,
      "weights" : {

      },
      "fused_relu" : 0,
      "debug_info" : "heatmap_max_neg",
      "top" : "heatmap_max_neg_output",
      "type" : "elementwise",
      "name" : "heatmap_max_neg",
      "beta" : 0
    },
    {
      "bottom" : "transpose_heatmap_output,heatmap_max_neg_output",
      "alpha" : 1,
      "operation" : 0,
      "weights" : {

      },
      "fused_relu" : 0,
      "debug_info" : "heatmap_subtract_max",
      "top" : "heatmap_subtract_max_output",
      "type" : "elementwise",
      "name" : "heatmap_subtract_max",
      "beta" : 0
    },
    {
      "bottom" : "heatmap_subtract_max_output",
      "alpha" : 1,
      "operation" : 27,
      "weights" : {

      },
      "fused_relu" : 0,
      "debug_info" : "softmax2d_target_exp",
      "top" : "softmax2d_target_exp_output",
      "type" : "elementwise",
      "name" : "softmax2d_target_exp",
      "beta" : 0
    },
    {
      "axis_mode" : 3,
      "bottom" : "softmax2d_target_exp_output",
      "weights" : {

      },
      "mode" : 0,
      "debug_info" : "softmax2d_reduce_sum",
      "use_version" : 1,
      "top" : "softmax2d_reduce_sum_output",
      "type" : "reduce",
      "name" : "softmax2d_reduce_sum"
    },
    {
      "bottom" : "softmax2d_reduce_sum_output",
      "alpha" : 1,
      "operation" : 10,
      "weights" : {

      },
      "fused_relu" : 0,
      "debug_info" : "softmax2d_reduce_sum_inv",
      "top" : "softmax2d_reduce_sum_inv_output",
      "type" : "elementwise",
      "name" : "softmax2d_reduce_sum_inv",
      "beta" : 0
    },
    {
      "bottom" : "softmax2d_target_exp_output,softmax2d_reduce_sum_inv_output",
      "alpha" : 1,
      "operation" : 1,
      "weights" : {

      },
      "fused_relu" : 0,
      "debug_info" : "softmax2d",
      "top" : "softmax2d_output",
      "type" : "elementwise",
      "name" : "softmax2d",
      "beta" : 0
    },
    {
      "bottom" : "",
      "k" : 1,
      "n" : 1,
      "weights" : {

      },
      "h" : 40,
      "debug_info" : "dsnt_x",
      "constant_blob" : 1,
      "top" : "dsnt_x_output",
      "w" : 40,
      "type" : "load_constant",
      "name" : "dsnt_x"
    },
    {
      "bottom" : "",
      "k" : 1,
      "n" : 1,
      "weights" : {

      },
      "h" : 40,
      "debug_info" : "dsnt_y",
      "constant_blob" : 3,
      "top" : "dsnt_y_output",
      "w" : 40,
      "type" : "load_constant",
      "name" : "dsnt_y"
    },
    {
      "bottom" : "softmax2d_output,dsnt_x_output",
      "alpha" : 1,
      "operation" : 1,
      "weights" : {

      },
      "fused_relu" : 0,
      "debug_info" : "multiply_softmax2d_dsnt_x",
      "top" : "multiply_softmax2d_dsnt_x_output",
      "type" : "elementwise",
      "name" : "multiply_softmax2d_dsnt_x",
      "beta" : 0
    },
    {
      "bottom" : "softmax2d_output,dsnt_y_output",
      "alpha" : 1,
      "operation" : 1,
      "weights" : {

      },
      "fused_relu" : 0,
      "debug_info" : "multiply_softmax2d_dsnt_y",
      "top" : "multiply_softmax2d_dsnt_y_output",
      "type" : "elementwise",
      "name" : "multiply_softmax2d_dsnt_y",
      "beta" : 0
    },
    {
      "axis_mode" : 3,
      "bottom" : "multiply_softmax2d_dsnt_x_output",
      "weights" : {

      },
      "mode" : 0,
      "debug_info" : "dnst_reduce_sum_x",
      "use_version" : 1,
      "top" : "dnst_reduce_sum_x_output",
      "type" : "reduce",
      "name" : "dnst_reduce_sum_x"
    },
    {
      "axis_mode" : 3,
      "bottom" : "multiply_softmax2d_dsnt_y_output",
      "weights" : {

      },
      "mode" : 0,
      "debug_info" : "dnst_reduce_sum_y",
      "use_version" : 1,
      "top" : "dnst_reduce_sum_y_output",
      "type" : "reduce",
      "name" : "dnst_reduce_sum_y"
    },
    {
      "bottom" : "dnst_reduce_sum_y_output,dnst_reduce_sum_x_output",
      "weights" : {

      },
      "simple_concat" : 1,
      "debug_info" : "concat",
      "top" : "concat_output",
      "type" : "sequence_concat",
      "name" : "concat"
    },
    {
      "axis_h" : 1,
      "axis_w" : 4,
      "bottom" : "concat_output",
      "axis_k" : 2,
      "axis_n" : 3,
      "axis_seq" : 0,
      "weights" : {

      },
      "debug_info" : "transpose_concat",
      "top" : "transpose_concat_output",
      "type" : "transpose",
      "name" : "transpose_concat"
    },
    {
      "bottom" : "transpose_concat_output",
      "alpha" : 1,
      "operation" : 0,
      "weights" : {

      },
      "fused_relu" : 0,
      "debug_info" : "centered_coordinates_yx_add1",
      "top" : "centered_coordinates_yx_add1_output",
      "type" : "elementwise",
      "name" : "centered_coordinates_yx_add1",
      "beta" : 0
    },
    {
      "bottom" : "centered_coordinates_yx_add1_output",
      "alpha" : 0.5,
      "operation" : 1,
      "beta" : 0,
      "weights" : {

      },
      "fused_relu" : 0,
      "debug_info" : "centered_coordinates_yx_div2",
      "top" : "normed_coordinates_yx",
      "type" : "elementwise",
      "name" : "centered_coordinates_yx_div2",
      "attributes" : {
        "is_output" : 1
      }
    }
  ]
}